Model
________________________________________________________________________________
Layer (type)                        Output Shape                    Param #     
================================================================================
dense_1 (Dense)                     (None, 150)                     26850       
________________________________________________________________________________
dropout_1 (Dropout)                 (None, 150)                     0           
________________________________________________________________________________
dense_2 (Dense)                     (None, 400)                     60400       
________________________________________________________________________________
dense_3 (Dense)                     (None, 400)                     160400      
________________________________________________________________________________
dense_4 (Dense)                     (None, 5)                       2005        
================================================================================
Total params: 249,655
Trainable params: 249,655
Non-trainable params: 0
________________________________________________________________________________


