Model
________________________________________________________________________________
Layer (type)                        Output Shape                    Param #     
================================================================================
dense_1 (Dense)                     (None, 50)                      8950        
________________________________________________________________________________
dropout_1 (Dropout)                 (None, 50)                      0           
________________________________________________________________________________
dense_2 (Dense)                     (None, 50)                      2550        
________________________________________________________________________________
dense_3 (Dense)                     (None, 150)                     7650        
________________________________________________________________________________
dense_4 (Dense)                     (None, 5)                       755         
================================================================================
Total params: 19,905
Trainable params: 19,905
Non-trainable params: 0
________________________________________________________________________________


