Model
________________________________________________________________________________
Layer (type)                        Output Shape                    Param #     
================================================================================
dense_1 (Dense)                     (None, 150)                     26850       
________________________________________________________________________________
dropout_1 (Dropout)                 (None, 150)                     0           
________________________________________________________________________________
dense_2 (Dense)                     (None, 150)                     22650       
________________________________________________________________________________
dense_3 (Dense)                     (None, 100)                     15100       
________________________________________________________________________________
dense_4 (Dense)                     (None, 5)                       505         
================================================================================
Total params: 65,105
Trainable params: 65,105
Non-trainable params: 0
________________________________________________________________________________


