Model
________________________________________________________________________________
Layer (type)                        Output Shape                    Param #     
================================================================================
dense_1 (Dense)                     (None, 200)                     35800       
________________________________________________________________________________
dropout_1 (Dropout)                 (None, 200)                     0           
________________________________________________________________________________
dense_2 (Dense)                     (None, 200)                     40200       
________________________________________________________________________________
dense_3 (Dense)                     (None, 200)                     40200       
________________________________________________________________________________
dense_4 (Dense)                     (None, 5)                       1005        
================================================================================
Total params: 117,205
Trainable params: 117,205
Non-trainable params: 0
________________________________________________________________________________


