Model
________________________________________________________________________________
Layer (type)                        Output Shape                    Param #     
================================================================================
dense_1 (Dense)                     (None, 400)                     71600       
________________________________________________________________________________
dropout_1 (Dropout)                 (None, 400)                     0           
________________________________________________________________________________
dense_2 (Dense)                     (None, 400)                     160400      
________________________________________________________________________________
dense_3 (Dense)                     (None, 200)                     80200       
________________________________________________________________________________
dense_4 (Dense)                     (None, 5)                       1005        
================================================================================
Total params: 313,205
Trainable params: 313,205
Non-trainable params: 0
________________________________________________________________________________


