Model
________________________________________________________________________________
Layer (type)                        Output Shape                    Param #     
================================================================================
dense_1 (Dense)                     (None, 100)                     17900       
________________________________________________________________________________
dropout_1 (Dropout)                 (None, 100)                     0           
________________________________________________________________________________
dense_2 (Dense)                     (None, 150)                     15150       
________________________________________________________________________________
dense_3 (Dense)                     (None, 150)                     22650       
________________________________________________________________________________
dense_4 (Dense)                     (None, 5)                       755         
================================================================================
Total params: 56,455
Trainable params: 56,455
Non-trainable params: 0
________________________________________________________________________________


