Model
________________________________________________________________________________
Layer (type)                        Output Shape                    Param #     
================================================================================
dense_1 (Dense)                     (None, 50)                      8950        
________________________________________________________________________________
dropout_1 (Dropout)                 (None, 50)                      0           
________________________________________________________________________________
dense_2 (Dense)                     (None, 150)                     7650        
________________________________________________________________________________
dense_3 (Dense)                     (None, 100)                     15100       
________________________________________________________________________________
dense_4 (Dense)                     (None, 5)                       505         
================================================================================
Total params: 32,205
Trainable params: 32,205
Non-trainable params: 0
________________________________________________________________________________


