Model
________________________________________________________________________________
Layer (type)                        Output Shape                    Param #     
================================================================================
dense_1 (Dense)                     (None, 200)                     35800       
________________________________________________________________________________
dropout_1 (Dropout)                 (None, 200)                     0           
________________________________________________________________________________
dense_2 (Dense)                     (None, 150)                     30150       
________________________________________________________________________________
dense_3 (Dense)                     (None, 400)                     60400       
________________________________________________________________________________
dense_4 (Dense)                     (None, 5)                       2005        
================================================================================
Total params: 128,355
Trainable params: 128,355
Non-trainable params: 0
________________________________________________________________________________


