Model
________________________________________________________________________________
Layer (type)                        Output Shape                    Param #     
================================================================================
dense_1 (Dense)                     (None, 150)                     26850       
________________________________________________________________________________
dropout_1 (Dropout)                 (None, 150)                     0           
________________________________________________________________________________
dense_2 (Dense)                     (None, 200)                     30200       
________________________________________________________________________________
dense_3 (Dense)                     (None, 400)                     80400       
________________________________________________________________________________
dense_4 (Dense)                     (None, 5)                       2005        
================================================================================
Total params: 139,455
Trainable params: 139,455
Non-trainable params: 0
________________________________________________________________________________


