Model
________________________________________________________________________________
Layer (type)                        Output Shape                    Param #     
================================================================================
dense_1 (Dense)                     (None, 60)                      47100       
________________________________________________________________________________
dropout_1 (Dropout)                 (None, 60)                      0           
________________________________________________________________________________
dense_2 (Dense)                     (None, 60)                      3660        
________________________________________________________________________________
dropout_2 (Dropout)                 (None, 60)                      0           
________________________________________________________________________________
dense_3 (Dense)                     (None, 10)                      610         
================================================================================
Total params: 51,370
Trainable params: 51,370
Non-trainable params: 0
________________________________________________________________________________


