Model
________________________________________________________________________________
Layer (type)                        Output Shape                    Param #     
================================================================================
dense_1 (Dense)                     (None, 200)                     35800       
________________________________________________________________________________
dropout_1 (Dropout)                 (None, 200)                     0           
________________________________________________________________________________
dense_2 (Dense)                     (None, 400)                     80400       
________________________________________________________________________________
dense_3 (Dense)                     (None, 200)                     80200       
________________________________________________________________________________
dense_4 (Dense)                     (None, 5)                       1005        
================================================================================
Total params: 197,405
Trainable params: 197,405
Non-trainable params: 0
________________________________________________________________________________


