Model
________________________________________________________________________________
Layer (type)                        Output Shape                    Param #     
================================================================================
dense_1 (Dense)                     (None, 200)                     35800       
________________________________________________________________________________
dropout_1 (Dropout)                 (None, 200)                     0           
________________________________________________________________________________
dense_2 (Dense)                     (None, 400)                     80400       
________________________________________________________________________________
dense_3 (Dense)                     (None, 400)                     160400      
________________________________________________________________________________
dense_4 (Dense)                     (None, 5)                       2005        
================================================================================
Total params: 278,605
Trainable params: 278,605
Non-trainable params: 0
________________________________________________________________________________


