Model
________________________________________________________________________________
Layer (type)                        Output Shape                    Param #     
================================================================================
dense_1 (Dense)                     (None, 150)                     26850       
________________________________________________________________________________
dropout_1 (Dropout)                 (None, 150)                     0           
________________________________________________________________________________
dense_2 (Dense)                     (None, 200)                     30200       
________________________________________________________________________________
dense_3 (Dense)                     (None, 200)                     40200       
________________________________________________________________________________
dense_4 (Dense)                     (None, 5)                       1005        
================================================================================
Total params: 98,255
Trainable params: 98,255
Non-trainable params: 0
________________________________________________________________________________


