Model
________________________________________________________________________________
Layer (type)                        Output Shape                    Param #     
================================================================================
dense_1 (Dense)                     (None, 150)                     26850       
________________________________________________________________________________
dropout_1 (Dropout)                 (None, 150)                     0           
________________________________________________________________________________
dense_2 (Dense)                     (None, 150)                     22650       
________________________________________________________________________________
dense_3 (Dense)                     (None, 50)                      7550        
________________________________________________________________________________
dense_4 (Dense)                     (None, 5)                       255         
================================================================================
Total params: 57,305
Trainable params: 57,305
Non-trainable params: 0
________________________________________________________________________________


