Model
________________________________________________________________________________
Layer (type)                        Output Shape                    Param #     
================================================================================
dense_1 (Dense)                     (None, 150)                     26850       
________________________________________________________________________________
dropout_1 (Dropout)                 (None, 150)                     0           
________________________________________________________________________________
dense_2 (Dense)                     (None, 100)                     15100       
________________________________________________________________________________
dense_3 (Dense)                     (None, 150)                     15150       
________________________________________________________________________________
dense_4 (Dense)                     (None, 5)                       755         
================================================================================
Total params: 57,855
Trainable params: 57,855
Non-trainable params: 0
________________________________________________________________________________


