Model
________________________________________________________________________________
Layer (type)                        Output Shape                    Param #     
================================================================================
dense_1 (Dense)                     (None, 100)                     17900       
________________________________________________________________________________
dropout_1 (Dropout)                 (None, 100)                     0           
________________________________________________________________________________
dense_2 (Dense)                     (None, 100)                     10100       
________________________________________________________________________________
dense_3 (Dense)                     (None, 50)                      5050        
________________________________________________________________________________
dense_4 (Dense)                     (None, 5)                       255         
================================================================================
Total params: 33,305
Trainable params: 33,305
Non-trainable params: 0
________________________________________________________________________________


