Model
________________________________________________________________________________
Layer (type)                        Output Shape                    Param #     
================================================================================
dense_1 (Dense)                     (None, 400)                     71600       
________________________________________________________________________________
dropout_1 (Dropout)                 (None, 400)                     0           
________________________________________________________________________________
dense_2 (Dense)                     (None, 400)                     160400      
________________________________________________________________________________
dense_3 (Dense)                     (None, 400)                     160400      
________________________________________________________________________________
dense_4 (Dense)                     (None, 5)                       2005        
================================================================================
Total params: 394,405
Trainable params: 394,405
Non-trainable params: 0
________________________________________________________________________________


