Model
________________________________________________________________________________
Layer (type)                        Output Shape                    Param #     
================================================================================
dense_1 (Dense)                     (None, 50)                      8950        
________________________________________________________________________________
dropout_1 (Dropout)                 (None, 50)                      0           
________________________________________________________________________________
dense_2 (Dense)                     (None, 150)                     7650        
________________________________________________________________________________
dense_3 (Dense)                     (None, 50)                      7550        
________________________________________________________________________________
dense_4 (Dense)                     (None, 5)                       255         
================================================================================
Total params: 24,405
Trainable params: 24,405
Non-trainable params: 0
________________________________________________________________________________


