Model
________________________________________________________________________________
Layer (type)                        Output Shape                    Param #     
================================================================================
dense_1 (Dense)                     (None, 150)                     26850       
________________________________________________________________________________
dropout_1 (Dropout)                 (None, 150)                     0           
________________________________________________________________________________
dense_2 (Dense)                     (None, 200)                     30200       
________________________________________________________________________________
dense_3 (Dense)                     (None, 150)                     30150       
________________________________________________________________________________
dense_4 (Dense)                     (None, 5)                       755         
================================================================================
Total params: 87,955
Trainable params: 87,955
Non-trainable params: 0
________________________________________________________________________________


