Model
________________________________________________________________________________
Layer (type)                        Output Shape                    Param #     
================================================================================
dense_1 (Dense)                     (None, 100)                     17900       
________________________________________________________________________________
dropout_1 (Dropout)                 (None, 100)                     0           
________________________________________________________________________________
dense_2 (Dense)                     (None, 150)                     15150       
________________________________________________________________________________
dense_3 (Dense)                     (None, 50)                      7550        
________________________________________________________________________________
dense_4 (Dense)                     (None, 5)                       255         
================================================================================
Total params: 40,855
Trainable params: 40,855
Non-trainable params: 0
________________________________________________________________________________


