Model
________________________________________________________________________________
Layer (type)                        Output Shape                    Param #     
================================================================================
dense_1 (Dense)                     (None, 200)                     35800       
________________________________________________________________________________
dropout_1 (Dropout)                 (None, 200)                     0           
________________________________________________________________________________
dense_2 (Dense)                     (None, 150)                     30150       
________________________________________________________________________________
dense_3 (Dense)                     (None, 150)                     22650       
________________________________________________________________________________
dense_4 (Dense)                     (None, 5)                       755         
================================================================================
Total params: 89,355
Trainable params: 89,355
Non-trainable params: 0
________________________________________________________________________________


