Model
________________________________________________________________________________
Layer (type)                        Output Shape                    Param #     
================================================================================
dense_114 (Dense)                   (None, 256)                     200960      
________________________________________________________________________________
dropout_4 (Dropout)                 (None, 256)                     0           
________________________________________________________________________________
dense_115 (Dense)                   (None, 128)                     32896       
________________________________________________________________________________
dropout_5 (Dropout)                 (None, 128)                     0           
________________________________________________________________________________
dense_116 (Dense)                   (None, 10)                      1290        
================================================================================
Total params: 235,146
Trainable params: 235,146
Non-trainable params: 0
________________________________________________________________________________


