Model
________________________________________________________________________________
Layer (type)                        Output Shape                    Param #     
================================================================================
dense_1 (Dense)                     (None, 10)                      7850        
________________________________________________________________________________
dropout_1 (Dropout)                 (None, 10)                      0           
________________________________________________________________________________
dense_2 (Dense)                     (None, 10)                      110         
________________________________________________________________________________
dropout_2 (Dropout)                 (None, 10)                      0           
________________________________________________________________________________
dense_3 (Dense)                     (None, 10)                      110         
================================================================================
Total params: 8,070
Trainable params: 8,070
Non-trainable params: 0
________________________________________________________________________________


